dqn_1_eg_combined.pth (torch_old, 930260 bytes, 10 tensors)

conv2d_1.weight f4 [32, 5, 3, 3]
0	0x3e17af98	0.14813077
1	0x3d78e80b	0.06076817
2	0xbd6ccfdb	-0.057815414
3	0xbd360435	-0.044437606
4	0xbe01daba	-0.12681094
5	0xbd7d6fb7	-0.061874118
6	0x3d90b53a	0.07065816
7	0xbd727143	-0.059190046
8	0x3dcd7d22	0.10033633
9	0x3df5a0fe	0.119935974
10	0xbd13d4d4	-0.03609164
11	0xbdb1a6ac	-0.08674368
12	0x3d49ee8c	0.04929976
13	0xbd58eb5d	-0.052958835
14	0xbc1fb1c4	-0.0097469725
15	0xbddab118	-0.10678309
16	0xbdd5b635	-0.10435144
17	0xbdce4f12	-0.10073675
18	0x3e1a303e	0.15057465
19	0x3d0916bd	0.03346895
20	0x3dc034f0	0.09385097
21	0x3da8a984	0.082354575
22	0x3d1f5c31	0.03890628
23	0x3deb5b44	0.11492017
24	0x3d2222af	0.039583858
25	0xbcb19716	-0.021678489
26	0x3db198a4	0.08671692
27	0xbd1321d9	-0.03592095
28	0x3d88a606	0.066722915
29	0x3e02c7c8	0.12771523
30	0x3d66895f	0.05628335
31	0xbdf30216	-0.11865632
32	0x3dea3ce1	0.11437393
33	0x3d5b8017	0.053588953
34	0xbe1aad65	-0.15105207
35	0x3d9744f8	0.073862016
36	0xbdf8e436	-0.12152903
37	0xbd2ab447	-0.041675832
38	0xbd4ed33f	-0.05049443
39	0xbdc63af7	-0.096792154
40	0xbd6d211a	-0.057892896
41	0x3c604924	0.013689313
42	0xbc14eb24	-0.009089265
43	0x3cfa0012	0.030517612
44	0x3dfdd2c6	0.123937175
45	0x3d4b96f0	0.049704492
46	0xbc5a96d9	-0.013341629
47	0x3d2f1100	0.04274082
48	0xbd8943fe	-0.067024216
49	0xbe02ffae	-0.12792847
50	0x3c838232	0.016053293
51	0x3caeec60	0.021352947
52	0xbda44f27	-0.080229096
53	0xbe02b997	-0.1276611
54	0xbd186286	-0.037203334
55	0x3d182a94	0.03714998
56	0x3e0afdaf	0.13573335
57	0xbdf91d55	-0.12163798
58	0x3debe9f6	0.11519234
59	0xbbe5cc0f	-0.007012851
60	0x3df53b5c	0.119742125
61	0xbd207033	-0.0391695
62	0x3dcf0e28	0.10110122
63	0x3d66d168	0.05635205
64	0xbcaab0d5	-0.020836273
65	0x3da4b6ca	0.08042677
66	0xbde6983c	-0.11259505
67	0x3dfb8458	0.12281102
68	0xbd891ccb	-0.06694945
69	0xbd975668	-0.073895276
70	0x3e00615a	0.12537137
71	0xbc697c9b	-0.0142509
72	0x3d6a507c	0.057205662
73	0xbc4b680f	-0.012414946
74	0xbd83ac52	-0.06429352
75	0xbd451bc0	-0.048122168
76	0xbdd2d359	-0.102942176
77	0xbdabac2e	-0.0838245
78	0x3dbf87f4	0.09352103
79	0x3e183be2	0.14866593
80	0x3dd9555c	0.10611984
81	0xbc2dad29	-0.010600367
82	0xbdf88065	-0.12133864
83	0x3dd17902	0.102281585
84	0xbdea96e8	-0.11454564
85	0xbdcbb146	-0.099459216
86	0x3d1afe97	0.037840452
87	0xbd181088	-0.03712514
88	0x3d5d5f4a	0.054045953
89	0x3debe8ac	0.11518988
90	0xbddfde25	-0.109310426
91	0x3d6f8244	0.05847384
92	0x3d92d121	0.071687944
93	0xbd153370	-0.036426008
94	0xbc915180	-0.017739058
95	0xbd2065fc	-0.03915976
96	0x3d90b76d	0.07066236
97	0x3d75b3c2	0.059985884
98	0xbdf0f16f	-0.117648
99	0x3d05b932	0.03264732
100	0xbc1de7f2	-0.00963782
101	0x3d3d3471	0.04619259
102	0xbb7634cc	-0.003756809
103	0xbc4ba29f	-0.012428909
104	0xbd94a5a5	-0.07258157
105	0xbb9aa944	-0.004719885
106	0xbc5151f8	-0.0127758905
107	0xbb332ebd	-0.002734109
108	0x3de80e15	0.11330811
109	0xbd4adf7e	-0.049529545
110	0xbc908353	-0.017640745
111	0xbd7473e8	-0.05968085
112	0xbe1c783b	-0.1528024
113	0x3d9b7eb7	0.07592528
114	0x3dd4cd6b	0.10390743
115	0x3e14ba08	0.1452409
116	0x3dd776d1	0.10520709
117	0x3db8f961	0.0903194
118	0xbce342c9	-0.027741807
119	0xbcf37b35	-0.029721836
120	0x3b8015d8	0.003908854
121	0xbd4cf67a	-0.050039746
122	0xbd993d4b	-0.07482394
123	0xbd85161d	-0.064983584
124	0x3c38c9b2	0.011278557
125	0xbc8fe9e3	-0.01756758
126	0x3d1ed3f9	0.03877637
127	0xbdb038a8	-0.08604556
128	0x3c4f60be	0.0126573425
129	0x3d5f37d9	0.05449662
130	0x3d1385ea	0.036016382
131	0xbcffd3ff	-0.031229017
132	0x3cbdd7c5	0.023174176
133	0x3e21b940	0.15793324
134	0x3e0d0983	0.1377316
135	0x3e18959f	0.14900826
136	0x3e1606c9	0.14651026
137	0x3d61666b	0.055029314
138	0x3e0e1686	0.1387578
139	0xbded4c9e	-0.11586879
140	0x3ce2f658	0.027705356
141	0xbd930bca	-0.07179983
142	0x3dc8baf6	0.09801285
143	0x3dec730e	0.115453824
144	0x3df7e166	0.12103538
145	0x3d81baf6	0.06334488
146	0x3cbae4f3	0.02281425
147	0xbd9a2066	-0.07525711
148	0xbd8e3d51	-0.06945289
149	0x3d829ad7	0.063771896
150	0xbd96fa94	-0.07372013
151	0xbe044b9a	-0.12919465
152	0xbcf8d90c	-0.030376934
153	0xbd845f60	-0.06463504
154	0x3dd2c8fb	0.1029224
155	0x3de56ece	0.11202775
156	0xbd5910aa	-0.052994408
157	0xbdc83f04	-0.09777644
158	0xbdf1dfc0	-0.11810255
159	0xbdf0b002	-0.11752321
160	0xbc800e79	-0.015631901
161	0x3c75c164	0.014999721
162	0xbdefbd9c	-0.11706087
163	0x3e1d717b	0.1537532
164	0x3d98974c	0.074507326
165	0x3e03fba2	0.12888959
166	0xbde9c0c2	-0.11413719
167	0xbe029f21	-0.12756015
168	0xbdf5a396	-0.11994092
169	0x3e04f249	0.1298305
170	0xbd7a5109	-0.061112437
171	0xbde7a494	-0.11310688
172	0x3daab4f2	0.08335294
173	0x3d705863	0.058678042
174	0x3d134225	0.035951752
175	0x3dc9ee54	0.098599106
176	0xbd5acebb	-0.05341981
177	0xbdbf53cc	-0.09342155
178	0xbd64be8f	-0.055845793
179	0xbdee719e	-0.116427645
180	0x3cbe0c7d	0.023199314
181	0xbd1e8f65	-0.03871097
182	0xbcbde571	-0.023180695
183	0x3da7df72	0.08196916
184	0x3def5970	0.11686981
185	0x3e019df9	0.12657918
186	0x3cf61fc1	0.030044438
187	0xbdeebcc3	-0.11657097
188	0x3e0de79f	0.13857888
189	0xbd065875	-0.032799203
190	0xbd3b4882	-0.045723446
191	0xbc568c3a	-0.013094956
192	0x3b569ce5	0.0032747325
193	0xbd3bb31c	-0.04582511
194	0x3d714af9	0.05890939
195	0xbd60b0af	-0.054856
196	0xbafb633a	-0.0019179352
197	0xbd83eb3c	-0.06441352
198	0xbd12a6e5	-0.035803694
199	0xbdf8d45c	-0.12149879
200	0xbce30f6d	-0.027717317
201	0x3dcc9cdf	0.09990858
202	0x3dcf154f	0.10111486
203	0xbc9978c8	-0.01873435
204	0x3bc98674	0.0061500613
205	0x3e03323d	0.12812133
206	0xbd5b90e9	-0.053604994
207	0xbdb6e1d0	-0.08929789
208	0x3d2fce8f	0.0429216
209	0xbdfed583	-0.12443068
210	0xbd320cc7	-0.043469217
211	0x3ddde7e7	0.108352475
212	0xbd49e8a3	-0.049294125
213	0xbd151b35	-0.0364029
214	0xbdcbc388	-0.09949404
215	0x3ddeefa4	0.108855516
216	0x3d50d325	0.050982613
217	0x3e0de216	0.13855776
218	0xbd947c72	-0.072502986
219	0xbe283d70	-0.16429687
220	0xbe14e5cf	-0.1454079
221	0xbe4bf30f	-0.19916938
222	0xbde6ebd0	-0.112754464
223	0x3e03bb9e	0.12864539
224	0xbe06894d	-0.13138314
225	0x3d18d457	0.037311878
226	0x3daace59	0.08340139
227	0xbd27bfd7	-0.040954437
228	0xbd9757eb	-0.07389816
229	0x3c223c05	0.009902005
230	0xbdadf895	-0.08494679
231	0x3de6edca	0.112758234
232	0xbe0bf425	-0.13667352
233	0x3e118e07	0.14214335
234	0x3c1c5f7c	0.00954425
235	0x3d4723c4	0.048618093
236	0x3e0aecab	0.13566844
237	0xbd0cf23b	-0.034410696
238	0xbd552553	-0.05203755
239	0xbe0bff6a	-0.13671651
240	0x3e12e1eb	0.14343993
241	0x3dadd9db	0.08488818
242	0x3e10e7ad	0.14150877
243	0x3d86741c	0.06565115
244	0x3e195e88	0.14977467
245	0xbda7d6e0	-0.08195281
246	0x3bd60832	0.0065317387
247	0xbd251924	-0.04030718
248	0xbdbdf74c	-0.09275684
249	0xbe0c33ca	-0.13691631
250	0xbc6446f1	-0.013932929
251	0xbdeb319c	-0.114840716
252	0xbe14bb4d	-0.14524575
253	0x3dc1dd9c	0.09466097
254	0xbd3dc591	-0.046330992
255	0x3d0142cc	0.031557843

conv2d_1.bias f4 [32]
0	0xbdf05aea	-0.117360905
1	0xbe058444	-0.13038737
2	0x3e134902	0.14383319
3	0x3cf7e5c2	0.030260924
4	0xbdfc2562	-0.12311818
5	0xbded1a56	-0.11577289
6	0xbdd19038	-0.10232586
7	0xbdb44495	-0.088021435
8	0xbe03f2c6	-0.1288558
9	0xbd35c8c9	-0.044380937
10	0xbd970b4b	-0.07375201
11	0xbd8ce9ec	-0.068805546
12	0xbdc38ac5	-0.095479526
13	0x3d3f4a04	0.046701446
14	0x3cb094ad	0.02155527
15	0xbe0b80d6	-0.13623366
16	0x3e027bb7	0.12742506
17	0x3d1d8efa	0.03846643
18	0x3e195bd6	0.14976439
19	0xbda13535	-0.078714766
20	0x3dbe62a3	0.09296157
21	0x3b996852	0.0046816254
22	0x3da8c0d6	0.082399055
23	0x3e14d830	0.14535594
24	0xbc1e31c3	-0.009655419
25	0x3e130872	0.1435869
26	0x3da6bce4	0.08141497
27	0x3cb03333	0.021508789
28	0xbdf9b16f	-0.12192046
29	0xbd5f18da	-0.05446706
30	0xbd8ca5d9	-0.068675704
31	0x3d6dd077	0.058060136

conv2d_2.weight f4 [64, 32, 3, 3]
0	0xbce8b964	-0.028408714
1	0x3d4cad79	0.049970124
2	0x3cd1620e	0.025559451
3	0x3c286939	0.010278993
4	0xbd317a99	-0.04332981
5	0xbcf52c4c	-0.029928349
6	0xbd449d26	-0.04800143
7	0x3c94fa28	0.01818569
8	0xbd714013	-0.058898997
9	0xbd081be5	-0.033229727
10	0xbd32281d	-0.043495286
11	0x3c14115d	0.009037343
12	0xbc5a80c1	-0.013336361
13	0x3d3976b7	0.04527923
14	0x3d2cabae	0.042155914
15	0xbd6b2e77	-0.05741736
16	0x3d30a070	0.043121755
17	0x3be9c96d	0.0071346075
18	0xbd5f5adb	-0.054530006
19	0xbc70f178	-0.014706008
20	0xbd1c387d	-0.03813981
21	0x3cc4a64f	0.024005083
22	0xbc62a6fc	-0.0138337575
23	0xbd273a93	-0.040827345
24	0x3d1bd8e2	0.038048632
25	0x3ceeff56	0.029174488
26	0xbd591ad6	-0.05300411
27	0xbd1fcac5	-0.039011735
28	0x3d60cf13	0.05488498
29	0x3b0c7806	0.0021433844
30	0xbd2b9f35	-0.04189988
31	0x3ccb503b	0.02481853
32	0x3c86ba66	0.016446304
33	0xbd441cbe	-0.047878973
34	0x3d66b202	0.056322105
35	0xbc50518f	-0.012714758
36	0xb8a7d481	-8.0027625e-05
37	0xbd1a9884	-0.037743106
38	0x3da5d577	0.08097356
39	0xbd1944c6	-0.037419103
40	0x3d277328	0.040881306
41	0x3d5832ff	0.05278301
42	0x3b0aca18	0.0021177586
43	0x3d7d334d	0.061816502
44	0x3d27782c	0.04088609
45	0x3d0f6e5f	0.035017367
46	0x3cdeefd4	0.027213968
47	0x3d9156e5	0.07096652
48	0xbd487a24	-0.048944607
49	0xbd0bf1ed	-0.034166265
50	0x3c610561	0.013734193
51	0xbd813366	-0.063086316
52	0xbd69acac	-0.05704944
53	0x3cb4d155	0.022072474
54	0xbcdc0c0b	-0.026861211
55	0x3bb1c5e8	0.0054252036
56	0xbd3c2342	-0.045932062
57	0x3cf105ec	0.02942177
58	0x3d4d0c16	0.050060354
59	0x3c6c38bf	0.014417826
60	0x3cb0bb4b	0.021573683
61	0xbc5f88cc	-0.013643455
62	0xbd60b36d	-0.054858614
63	0xbd69a4f7	-0.05704209
64	0xbce73a43	-0.028226024
65	0xbc7b032e	-0.015320582
66	0x3bb38beb	0.005479326
67	0x3a803f5a	0.0009784505
68	0xbc5e6879	-0.013574713
69	0xbc88b2f7	-0.0166869
70	0xbcc520b3	-0.024063444
71	0x3cbe018b	0.023194095
72	0x3d829623	0.063762926
73	0xbc441b0b	-0.011969338
74	0x3bb3f28a	0.0054915594
75	0x3ca8ef3a	0.020621885
76	0x3d0ce5c9	0.034398828
77	0xbd0da59d	-0.03458177
78	0xbcaf67e6	-0.021411847
79	0x3bd9c8b1	0.0066462387
80	0xbca314c5	-0.019907365
81	0x3af4a0c5	0.0018663636
82	0x3d59bc00	0.053157806
83	0x3ae7a9eb	0.0017674541
84	0x3d2d5e3d	0.0423262
85	0xbc1ba97b	-0.0095008565
86	0xbc5b40bb	-0.013382132
87	0x3c0d2887	0.0086156195
88	0x3c95533f	0.018228171
89	0x3cddd4e0	0.027079046
90	0xbd52fe94	-0.051512316
91	0xbb8245b7	-0.003975596
92	0x3cd1fe01	0.025633814
93	0x3d24ea03	0.040262233
94	0xbc759a41	-0.01499039
95	0xbb9eca22	-0.0048458735
96	0x3c8a3420	0.016870558
97	0xbcebd4e1	-0.028788032
98	0xbd260def	-0.04054063
99	0xbbd0c0f8	-0.00637066
100	0xbd5fc15a	-0.054627754
101	0x3c75f991	0.015013115
102	0xbd7161cd	-0.05893116
103	0x3d14cf2c	0.036330387
104	0x3a5ba41f	0.0008378643
105	0x3c3f97e6	0.01169393
106	0x3d5c15ce	0.053731732
107	0xbcd171f7	-0.025567038
108	0x3d27cad0	0.0409649
109	0x3d2f8be9	0.042858038
110	0xbca0e10b	-0.019638559
111	0xbc978881	-0.018497707
112	0x3c6f9bec	0.014624577
113	0x3d29fc86	0.04150059
114	0x3cc43ddc	0.023955278
115	0x3cc4ee6e	0.024039473
116	0xbb827933	-0.003981733
117	0x3d089fe2	0.0333556
118	0xbc22c74c	-0.009935211
119	0xbc801aec	-0.015637837
120	0x3d1045a2	0.035222657
121	0xbcf75138	-0.030190095
122	0x3d31171a	0.043234922
123	0xbc7b0561	-0.015321107
124	0xbd64aaff	-0.055827137
125	0x3c4b03c9	0.012391039
126	0xbc3e83a2	-0.011628063
127	0x3c5916cb	0.013250063
128	0xbc705754	-0.014669258
129	0x3cdcd5fd	0.026957506
130	0x3d552f84	0.052047268
131	0x3cd38401	0.02581978
132	0xbcbe00d6	-0.023193758
133	0x3d0a9dd3	0.03384192
134	0x3d0e1bc5	0.03469445
135	0xbd0cb5e0	-0.034353137
136	0x3caca58e	0.021075036
137	0x3d2e9a70	0.04262775
138	0xbd5ab397	-0.053393926
139	0xbc945868	-0.018108562
140	0xbd2947bf	-0.041328188
141	0x3cc19ce3	0.02363438
142	0x3c27f5f5	0.010251512
143	0xbd4f222b	-0.050569694
144	0xbcbb0d9e	-0.022833642
145	0x3cec2a73	0.028828835
146	0x3d8ae88b	0.06782635
147	0xbd4b4430	-0.049625576
148	0x3b37086c	0.0027928604
149	0xbbd46bff	-0.0064826007
150	0xbd7e24a2	-0.062046655
151	0xbcae1381	-0.021249535
152	0xbcda5fcf	-0.026657013
153	0xbd2983a0	-0.041385293
154	0xbd229f75	-0.03970285
155	0xbd567124	-0.052353993
156	0x3ba80d2f	0.0051285247
157	0x3d0a513d	0.03376888
158	0x3a17cf2b	0.00057910633
159	0x3bd90bf8	0.0066237412
160	0xbd60c584	-0.054875866
161	0x3b10c6c5	0.0022091132
162	0x3bc84530	0.0061117634
163	0x3d028f36	0.031874858
164	0x3d820669	0.06348879
165	0xbd0f469f	-0.03497946
166	0xbc94be6f	-0.018157212
167	0x3d0d6575	0.034520585
168	0xbcce98cb	-0.025219342
169	0xbd06f22d	-0.0329458
170	0xbbcf2773	-0.0063218414
171	0xbb7d7a38	-0.0038677584
172	0x3d15561c	0.036459073
173	0x3cb66884	0.022266634
174	0x3cce140f	0.025156049
175	0xbd4af2dc	-0.049548015
176	0x3bc5c79d	0.0060357586
177	0x3d671c01	0.05642319
178	0xbc6bdd34	-0.014396001
179	0xbd38e463	-0.04513968
180	0x3d4f26fc	0.050574288
181	0x3d2a5274	0.04158254
182	0xbd84f90b	-0.06492814
183	0x3cf12fff	0.029441832
184	0xbcca2475	-0.024675587
185	0xbd181739	-0.03713152
186	0x3c208a6e	0.009798629
187	0x3d853db0	0.065059066
188	0xbd1a7086	-0.037704967
189	0xbbc28d37	-0.0059372443
190	0x3d8223c6	0.063544795
191	0x3d4f21b7	0.050569262
192	0xba325cfc	-0.0006804017
193	0x3d3ab3e3	0.04558171
194	0x3d3444b0	0.044010818
195	0xbd374bba	-0.044749953
196	0xbb9e1cc3	-0.004825206
197	0x3cf5a109	0.029984014
198	0x3d52e678	0.051489323
199	0x3d3d51a0	0.04622042
200	0xbc8eda70	-0.017438143
201	0xbb1be19e	-0.0023785601
202	0x3d68c21c	0.056825742
203	0xbcdce20b	-0.026963254
204	0xbd4c9292	-0.049944468
205	0x3d087530	0.033314884
206	0x3cf77097	0.030205054
207	0x3d498c95	0.049206335
208	0x3d349205	0.044084568
209	0xbbbbf208	-0.0057356395
210	0x3b060e45	0.0020455283
211	0x3c9a1b0b	0.018811723
212	0x3c77ce26	0.015124833
213	0xbd5838f7	-0.0527887
214	0x3d6e8297	0.05823001
215	0x3d69f0a7	0.05711427
216	0xbd24e91f	-0.040261384
217	0xbd099e18	-0.033598036
218	0x3d3cbca8	0.046078354
219	0x3d23bf90	0.03997761
220	0x3d1ed3ea	0.038776316
221	0xbcb0b0e7	-0.021568729
222	0x3d81f377	0.06345265
223	0x3c5cc930	0.013475701
224	0xbd23ca98	-0.03998813
225	0xbd475655	-0.048666317
226	0xbd5455b1	-0.051839534
227	0x3d82bee4	0.06384066
228	0xbcd8a8bc	-0.026447646
229	0xbc95fd41	-0.018309237
230	0x3bc8008f	0.006103582
231	0xbd3473d4	-0.044055775
232	0xbcc2a831	-0.02376184
233	0x3d2c377f	0.042045113
234	0x3d15b025	0.036544938
235	0xbadd5d7f	-0.0016888826
236	0x3d939947	0.0720697
237	0x3c07085d	0.00824174
238	0xbc1302b3	-0.0089728115
239	0x3d5d2fec	0.05400078
240	0xbb2e450f	-0.0026591455
241	0xbd4e1864	-0.05031623
242	0x3d36c295	0.04461916
243	0xbd55b3b0	-0.052173316
244	0xbcdf9062	-0.027290527
245	0xbd2f99b9	-0.04287121
246	0xbb6f5152	-0.0036516977
247	0xbcf20827	-0.029544903
248	0xbd3c7400	-0.046009064
249	0x3c67d211	0.014149205
250	0x3c807d22	0.015684668
251	0x3c44076a	0.011964658
252	0xbd07fd95	-0.03320082
253	0x3d0dfa05	0.034662265
254	0xbd4f6f60	-0.050643325
255	0x3cb428f0	0.021992177

conv2d_2.bias f4 [64]
0	0x3b1ecae9	0.002422983
1	0x3d03e368	0.032199293
2	0x3c84846f	0.01617643
3	0x3d382882	0.044960506
4	0x3d321e75	0.043486077
5	0x3d15c18a	0.036561526
6	0xbd65327e	-0.055956356
7	0xbcd1d4d9	-0.025614189
8	0xbc96449f	-0.018343268
9	0xbd58d9cf	-0.052942093
10	0xbd491842	-0.0490954
11	0xbd394ab5	-0.04523726
12	0x3b9960a3	0.0046807094
13	0xbd397f75	-0.045287568
14	0xbd50756c	-0.050893232
15	0xbd1b4cbd	-0.03791498
16	0xbcc25114	-0.023720302
17	0x3cc52ef2	0.024070237
18	0xbd58050a	-0.05273918
19	0x3c734b2b	0.014849464
20	0x3d2a3828	0.04155746
21	0x3d45a4d7	0.048252907
22	0xbd03cebd	-0.032179583
23	0xbd58492a	-0.05280415
24	0x3d3fc33d	0.046817053
25	0x3d41156b	0.047139566
26	0x3d0a3bcb	0.03374843
27	0xbc9f4075	-0.019439915
28	0x3cbb73e1	0.022882404
29	0x3d5719e8	0.05251494
30	0x3d5c4fa8	0.053786904
31	0x3d728bbe	0.0592153
32	0xbcadf9bc	-0.021237247
33	0x3b9f4c83	0.004861416
34	0xbcff6459	-0.03117578
35	0x3d1709d3	0.036874603
36	0xbd5f23ef	-0.05447763
37	0xbd06436d	-0.032779146
38	0x3cc344f3	0.023836588
39	0x3a701caf	0.00091595476
40	0x3c73f93f	0.014890968
41	0xbcfa3d2c	-0.030546747
42	0xbca2b101	-0.019859793
43	0xbd343ece	-0.044005208
44	0xbaf1a8ff	-0.0018437206
45	0xbd2dae75	-0.042402703
46	0x3c37f58c	0.0112279765
47	0xbc940b50	-0.0180718
48	0xbb85768f	-0.004072971
49	0xbcf7f778	-0.03026937
50	0xbc609339	-0.013706976
51	0x3d4f60b3	0.05062933
52	0xbc103215	-0.008801003
53	0x3c9477b4	0.018123485
54	0x3d5344dc	0.05157934
55	0x3c28b8cd	0.010297966
56	0x3ca75a3c	0.02042877
57	0xbc9cde76	-0.019149046
58	0x3cd4376c	0.025905333
59	0x3c2948c6	0.010332292
60	0x3c1030c9	0.008800694
61	0xbd500891	-0.05078942
62	0xbaf0269e	-0.0018322056
63	0x3ba73c51	0.005103626

conv2d_3.weight f4 [64, 64, 3, 3]
0	0xbc97b32a	-0.01851805
1	0xbc1dafcd	-0.009624434
2	0x3d2d5ff2	0.04232783
3	0x3c25a493	0.010110038
4	0xbb856f50	-0.0040721074
5	0x3d27f033	0.041000556
6	0x3cfd62d4	0.030930914
7	0xbcfb48dc	-0.03067439
8	0xbc583343	-0.0131958155
9	0x3c83bbd5	0.016080776
10	0x3cebe094	0.02879361
11	0x3cb2233b	0.021745315
12	0x3d3e9336	0.04652711
13	0xbc2d4682	-0.010575892
14	0xbcb655e5	-0.022257755
15	0x3cf923d5	0.030412594
16	0xbab5516c	-0.001383347
17	0x3bf5ee3a	0.0075052055
18	0xbc8d26ce	-0.017230418
19	0xbcca3159	-0.024681734
20	0x3d01840c	0.03162007
21	0x3d0a2d81	0.033734802
22	0x3d139e6c	0.036039755
23	0x3adb503c	0.0016732286
24	0xbcec4517	-0.028841538
25	0x3cb03b6f	0.021512715
26	0x3cb0f3a6	0.021600556
27	0xba71c581	-0.0009222851
28	0x3b9b3c18	0.0047373883
29	0x3d06a39c	0.032870874
30	0xbc4e6667	-0.012597657
31	0x3c9a11b8	0.018807277
32	0xbcbb5b32	-0.022870634
33	0x3be3d3e4	0.0069527496
34	0x3b698f6a	0.003563846
35	0x3d200529	0.03906742
36	0xbbaafe54	-0.0052183066
37	0x3cc25db1	0.023726316
38	0x3c21fd88	0.009887107
39	0xbcc692a8	-0.024239853
40	0x3cd9cff9	0.026588427
41	0xba285767	-0.00064217154
42	0x3c814bd6	0.015783232
43	0x3b87e208	0.004146818
44	0xbd17d122	-0.03706468
45	0x3cd8b358	0.026452705
46	0xbd054bc8	-0.032542974
47	0x3d1af3b5	0.037830073
48	0x3c7c6bb7	0.015406541
49	0x3c87617d	0.016525978
50	0xbae5ef4c	-0.001754263
51	0xbcd56ace	-0.026051905
52	0xbd026d52	-0.031842537
53	0xbc29845a	-0.0103464965
54	0x3aa3db01	0.0012501181
55	0xbce95a33	-0.028485393
56	0xba768b91	-0.0009404952
57	0xbc682c80	-0.014170766
58	0x3b134069	0.0022468811
59	0xbc861d5f	-0.016371427
60	0xbc72df4f	-0.014823749
61	0xbc3e0835	-0.011598636
62	0xba42f17c	-0.00074364967
63	0x3cca2897	0.024677558
64	0x3c1191f4	0.008884896
65	0xbd1a5a93	-0.037684035
66	0xbcc27168	-0.023735717
67	0xbc41b847	-0.01182372
68	0xbcd62b6e	-0.026143756
69	0x3bec12b8	0.00720438
70	0x3b679faf	0.0035342982
71	0xbcc49150	-0.023995072
72	0x3ceac5b5	0.028658727
73	0xbc9d698e	-0.019215371
74	0x3c99c31c	0.018769793
75	0xbc9e6056	-0.019333046
76	0xbd0ea985	-0.034829635
77	0x3ba43fd2	0.005012491
78	0xbc1149d8	-0.008867703
79	0x3b97277c	0.004612861
80	0x3b517984	0.0031963298
81	0x3c2e86d0	0.010652259
82	0xbcb9a936	-0.022663694
83	0x3ca18eeb	0.019721469
84	0x3b8f1850	0.004366912
85	0x3cd72096	0.026260655
86	0x3c8a7c73	0.016905045
87	0xbce6be99	-0.028167056
88	0x3d01e596	0.03171309
89	0x3c844c25	0.01614959
90	0x3d2c4f86	0.042068027
91	0x3cfcdac2	0.03086603
92	0xbd0f92ac	-0.035051987
93	0xbc4c23eb	-0.012459735
94	0x3b9afcad	0.0047298283
95	0xbd02a68f	-0.031897124
96	0x3d0f738d	0.035022307
97	0xbc0f15a9	-0.0087331915
98	0xbb73350c	-0.0037110476
99	0x3d0b652b	0.03403203
100	0xbca9623e	-0.020676728
101	0xbd1720c5	-0.036896486
102	0x3b4914ad	0.003068249
103	0xbba94d9b	-0.005166722
104	0xbc1c29de	-0.009531466
105	0xbc952bfa	-0.018209446
106	0xbc38f448	-0.01128871
107	0x3d13b689	0.03606275
108	0x3d2dc76f	0.042426523
109	0xbccca395	-0.024980346
110	0xbc53f5d7	-0.012937031
111	0xbcbd0aeb	-0.023076495
112	0xbce0c1b7	-0.02743612
113	0x3bc0c519	0.005882871
114	0xbcb62990	-0.022236615
115	0x3c0c85af	0.0085767945
116	0x3d423b01	0.04741955
117	0xbd04d1e5	-0.032426734
118	0x3cfdfb11	0.031003507
119	0xbd0942f4	-0.033511117
120	0xbc5d9563	-0.013524386
121	0xbd07fafa	-0.033198334
122	0x3bb5299e	0.005528643
123	0x3b752720	0.0037407354
124	0x3c0e54bc	0.008687194
125	0x3d26ca1c	0.04072009
126	0x3c437cf8	0.01193165
127	0xbc00b324	-0.00785521
128	0x3cb30268	0.021851733
129	0xbd179639	-0.037008498
130	0x3be6cd51	0.0070435186
131	0xbd16fd4f	-0.036862668
132	0xbce7749f	-0.028253851
133	0x3cd7a679	0.026324498
134	0xba1b3b4f	-0.00059216184
135	0x3d22c9a6	0.03974309
136	0x3cb8465d	0.02249449
137	0x3c87fb80	0.016599417
138	0xbc63fba5	-0.013914977
139	0xbd06f246	-0.032945894
140	0xbb3bfd5f	-0.0028684956
141	0x3cd1b209	0.02559759
142	0x3c653c77	0.013991467
143	0xbb9cf83a	-0.004790333
144	0x3c705420	0.014668494
145	0xbc32620c	-0.010887634
146	0xbd009e80	-0.031401157
147	0xbd043059	-0.03227267
148	0x3ca03daa	0.019560654
149	0xbcbe338d	-0.02321794
150	0xbd0ab7e7	-0.03386679
151	0xbcbcd554	-0.023050942
152	0xbb89660b	-0.0041930727
153	0xbcc9e3dc	-0.024644785
154	0x3c9c66cf	0.019091992
155	0x3d09c53a	0.033635356
156	0xbcf11c7f	-0.029432533
157	0xbcaa67e7	-0.020801498
158	0x3c79b687	0.015241272
159	0x3d4b0a48	0.04957035
160	0x3d101bca	0.03518275
161	0xbcbd1f7a	-0.023086298
162	0xbba9f7d7	-0.0051870155
163	0xbc96a01d	-0.018386895
164	0xbc371539	-0.0111744935
165	0xbd1bbc4a	-0.038021363
166	0xbb6c026f	-0.0036012193
167	0xba3e2809	-0.00072538905
168	0x3d0ab8e5	0.033867735
169	0x3d005f3c	0.031340823
170	0xbbf2cec1	-0.007409901
171	0x3c867783	0.01641441
172	0x3d08f911	0.033440653
173	0x3d27e49f	0.040989514
174	0x3ce32ca8	0.027731255
175	0x3c89bbd5	0.016813198
176	0x3c225c7a	0.009909743
177	0x3ccd2060	0.025039852
178	0x3b7dc728	0.0038723443
179	0xbb2b38e4	-0.0026126439
180	0x3d071fce	0.032989316
181	0xbc8a4c34	-0.01688204
182	0xbd0ff809	-0.035148654
183	0xbca13f4f	-0.019683508
184	0xbca10c3e	-0.019659158
185	0x3d14789a	0.036247827
186	0xbca607ec	-0.02026745
187	0xbd08c244	-0.03338839
188	0xbb465554	-0.0030263262
189	0xbd19bb99	-0.037532423
190	0x3bab80fb	0.0052338815
191	0x3d1738a0	0.036919236
192	0xbd1f6a94	-0.03892
193	0x3b50ecbe	0.003187939
194	0x3c171e12	0.009223478
195	0xbc77979f	-0.015111833
196	0x3c159e84	0.009132031
197	0xbc8ef4f3	-0.017450785
198	0x3c4a2e8b	0.012340198
199	0xbc433a38	-0.011915736
200	0x3cc92ca5	0.024557421
201	0xbd041981	-0.032250885
202	0xbc0af2a6	-0.008480703
203	0x3c436b65	0.01192746
204	0xbb09a0b9	-0.002100034
205	0x3c058221	0.008148701
206	0x3d217272	0.039415784
207	0x3c561a3e	0.01306778
208	0xbd1e50b9	-0.038651202
209	0x3cb4f2d8	0.022088453
210	0xbd2de1fb	-0.04245184
211	0x3cc63907	0.024197115
212	0xbc58ed7b	-0.0132402135
213	0x3d0c7b50	0.034297287
214	0x3c46bd2b	0.012130062
215	0xbc710927	-0.014711655
216	0xbc824c1f	-0.015905438
217	0xbc93bb85	-0.018033752
218	0x3d271449	0.04079083
219	0x3cf8636b	0.030320844
220	0xbca509f1	-0.020146342
221	0xbc10e93c	-0.00884467
222	0xbd04be9f	-0.032408353
223	0xbc6c2bb5	-0.014414717
224	0xbcc9d322	-0.024636809
225	0xbc276c89	-0.010218748
226	0xbcd62abb	-0.026143422
227	0xbcd1b212	-0.025597606
228	0xbcaf6a9a	-0.021413136
229	0xbc82974a	-0.01594128
230	0x3c305235	0.010761787
231	0x3d0d3519	0.034474466
232	0x3ce3833c	0.027772538
233	0x3b29cd2e	0.002590965
234	0xbcf713ff	-0.030160902
235	0x3d16b14a	0.03679017
236	0x3d292e5a	0.04130397
237	0x3caf4fad	0.021400297
238	0xbc5229bb	-0.012827332
239	0xbcd4893b	-0.025944343
240	0x3c6a3cd2	0.014296727
241	0x3a03b0d4	0.0005023603
242	0x3c3a3d61	0.011367173
243	0x3d3832ad	0.044970203
244	0xba62c0a8	-0.0008649924
245	0xbb9efd7f	-0.0048519964
246	0x3c769a38	0.015051417
247	0xbd00da18	-0.03145799
248	0x3c81ac1b	0.015829137
249	0xbae96f3b	-0.0017809639
250	0x3c0c01ff	0.008545398
251	0xbb27654b	-0.0025542553
252	0xbcacda63	-0.021100229
253	0xbc447f43	-0.011993232
254	0xbb07efbd	-0.002074226
255	0x3d1b8cf6	0.037976228

conv2d_3.bias f4 [64]
0	0x3c491069	0.012271979
1	0xbb6616ce	-0.0035108807
2	0xbd133b26	-0.03594508
3	0x3c8c0551	0.017092379
4	0xbcec984c	-0.028881215
5	0x3cd6d178	0.02622293
6	0x3d256faf	0.040389713
7	0xbcdc6f4f	-0.026908545
8	0x3be077bf	0.0068502123
9	0x3cbf8c54	0.023382343
10	0xbc79421d	-0.015213517
11	0xbc3111b7	-0.010807446
12	0xbcac2998	-0.021015927
13	0xbd1074ef	-0.035267767
14	0x3cf934f3	0.030420756
15	0x3d234b9a	0.03986702
16	0x3d27f780	0.04100752
17	0xbc748f88	-0.014926799
18	0xbc9b6421	-0.018968644
19	0xbb983378	-0.0046448074
20	0x3d2202a9	0.03955332
21	0x3c4adfa9	0.012382426
22	0xbc2e43fc	-0.010636326
23	0x3c8ce732	0.017200086
24	0x3c495ddb	0.012290443
25	0xbadb0461	-0.0016709679
26	0x3befb84d	0.0073156715
27	0x3cb6b31b	0.022302201
28	0x3c69f35f	0.014279216
29	0x3c9a3fbf	0.018829225
30	0xbca75e78	-0.020430788
31	0x3ce85c26	0.028364252
32	0x3b228a23	0.0024801574
33	0x3c6cabec	0.014445286
34	0xbd1a308a	-0.037643947
35	0xbc9ce302	-0.019151215
36	0x3d00a678	0.031408757
37	0x3d249a9e	0.040186517
38	0x3bd32548	0.0064436533
39	0x3d1784cb	0.036991876
40	0xbd16882c	-0.036750957
41	0x3c8527e4	0.016254373
42	0xbd26a125	-0.040681023
43	0xbcde2cd0	-0.027120978
44	0x3b78c151	0.0037957022
45	0xbc5d0da1	-0.013492019
46	0xbc382a67	-0.011240578
47	0xbb478428	-0.0030443761
48	0x3cfb06c6	0.030642878
49	0x3d1f063a	0.038824297
50	0xbbbb38f0	-0.0057135746
51	0x3d22784c	0.039665505
52	0xbd179c21	-0.03701413
53	0x3bab3986	0.005225363
54	0x3b621ef7	0.003450332
55	0x3cfdf553	0.031000769
56	0xbd0e0305	-0.03467085
57	0xbcdd3f79	-0.027007805
58	0x3cbe859b	0.023257067
59	0xbce2c233	-0.027680492
60	0xbcd96f16	-0.026542228
61	0x3cbe2120	0.023209155
62	0xbc8f9b55	-0.017530123
63	0x3c8cc8ce	0.017185595

fc_1.weight f4 [170, 1024]
0	0xbcdb1bff	-0.026746748
1	0x3a926569	0.0011169139
2	0x3ca8dd7c	0.020613424
3	0x3c24fd47	0.010070152
4	0x3cf6e4a0	0.030138314
5	0x3cccc03a	0.024994005
6	0xbcad2498	-0.021135613
7	0x3ce5e1ef	0.028061835
8	0x3d006d77	0.031354394
9	0xb913bcf5	-0.00014089404
10	0x3c64610e	0.013939155
11	0x3c7a3d8a	0.015273461
12	0xbbcb06d2	-0.0061958814
13	0x38c7eb9f	9.532947e-05
14	0x3d137157	0.03599676
15	0xbc74b8c5	-0.014936631
16	0x3cc9288c	0.024555467
17	0x3cea36f8	0.028590664
18	0xbaac838d	-0.0013161764
19	0x3cb83c5d	0.022489721
20	0xbb3bb7d4	-0.0028643506
21	0xbcc36ee0	-0.02385658
22	0x3cbd9734	0.023143388
23	0x3bf01831	0.0073271026
24	0x3c0d326d	0.0086179795
25	0x3c8b1b36	0.016980749
26	0x3ce6f3e7	0.028192474
27	0x3bf3ecf5	0.007444019
28	0xbcc55f44	-0.024093278
29	0xbcc4dae6	-0.02403016
30	0x3cdc5d41	0.026899936
31	0xbc122705	-0.008920436
32	0x3c9a034e	0.018800404
33	0x3cb2a104	0.021805294
34	0xb86f7395	-5.7089685e-05
35	0xbcac60ea	-0.021042306
36	0xbcbc8b80	-0.023015738
37	0x3cbfef01	0.023429396
38	0xbce906b9	-0.028445588
39	0xbbb30fc4	-0.005464526
40	0xbc8e09d0	-0.017338663
41	0x3cc3e787	0.023914112
42	0xbcd20bc2	-0.025640372
43	0xba65beca	-0.00087640865
44	0xbc78028f	-0.015137329
45	0xbb6d3ac0	-0.0036198348
46	0x3cc188f4	0.023624875
47	0x3c57e366	0.013176775
48	0x3c015fb6	0.007896354
49	0x3cb28bcc	0.021795176
50	0x3d042801	0.032264713
51	0xbc534a0f	-0.012896075
52	0x3c49b10b	0.012310277
53	0xbceb7354	-0.028741516
54	0x3c53084c	0.012880396
55	0xb9df0790	-0.0004253951
56	0x3c44a0b0	0.0120012015
57	0x3b1621f8	0.002290843
58	0x3c13ff52	0.009033041
59	0x3cd8cefe	0.026465889
60	0xbc7bad7f	-0.015361189
61	0x3ca81a46	0.02052034
62	0x3b5ff241	0.0034171494
63	0xbc0cf63f	-0.0086036315
64	0xbb247edd	-0.002510003
65	0xbcfb919d	-0.030709082
66	0xbcf0a1b5	-0.029373983
67	0xbce00ec4	-0.02735079
68	0xbc679793	-0.014135259
69	0x3c6ace04	0.0143313445
70	0xbc021516	-0.007939598
71	0x3a5faf65	0.0008532911
72	0x3cfc27eb	0.030780753
73	0x3c57da65	0.013174628
74	0xbc578127	-0.013153351
75	0xbce75afb	-0.028241625
76	0xbbd0e198	-0.006374549
77	0xbc303f1c	-0.010757234
78	0xbcb708a5	-0.02234299
79	0xbc850f88	-0.016242757
80	0xbc899410	-0.016794235
81	0xbd09aa11	-0.033609454
82	0xbca7edf1	-0.020499201
83	0xbcda8eab	-0.026679358
84	0xbd0ea7ae	-0.03482788
85	0xbcd92460	-0.026506603
86	0x3c7d3bbb	0.015456135
87	0x3d309192	0.043107577
88	0xbd29da5f	-0.04146802
89	0xbc8f365c	-0.017481975
90	0x3bb9b8a8	0.0056677647
91	0xbcba6d64	-0.02275724
92	0x3a22af16	0.00062058994
93	0xbc20aeed	-0.009807331
94	0xbbc47eb0	-0.0059965476
95	0xbc820a33	-0.015874004
96	0x3c750cc1	0.014956654
97	0xbcaed29c	-0.02134066
98	0xbca1c963	-0.019749349
99	0xbc0abdaa	-0.008468071
100	0x3d019440	0.031635523
101	0x3cba49a8	0.0227402
102	0xbbda07b1	-0.006653749
103	0x3b6f24bf	0.0036490408
104	0x3c2e222c	0.010628264
105	0x3b9cc451	0.004784145
106	0x3c7ae6c0	0.015313804
107	0x3cba0a03	0.022709852
108	0xbcb5824f	-0.022156863
109	0xbbd66948	-0.006543312
110	0xbbd81b57	-0.006595056
111	0xbc82153f	-0.015879272
112	0xbbb78747	-0.005600843
113	0xbc540ff1	-0.012943254
114	0xbc8a6a9f	-0.016896544
115	0xbc43285c	-0.011911478
116	0xbc84be04	-0.016203888
117	0x3bd6f8f9	0.0065604416
118	0x3c706968	0.014673568
119	0x3c1823d0	0.009285882
120	0x3ccbf7f0	0.0248985
121	0x3ca446e7	0.02005334
122	0x3c2af2c2	0.010433855
123	0xbcd0b46e	-0.02547666
124	0x3cbae678	0.022814974
125	0x3ab1330c	0.0013519241
126	0xbbcda424	-0.0062756706
127	0x3bdcd706	0.0067395
128	0xbd08ae6b	-0.033369463
129	0xbcf138d9	-0.029446052
130	0xbc9b98a7	-0.018993689
131	0x3b0664db	0.0020506892
132	0xbc4df4c3	-0.012570563
133	0xba4799a2	-0.00076141406
134	0x3cd03616	0.025416415
135	0xbb610b16	-0.0034338883
136	0xbcd64015	-0.026153604
137	0x3ba4a777	0.005024846
138	0x3cab5390	0.02091387
139	0x3c3e7589	0.011624702
140	0xbcaea6a5	-0.021319697
141	0x3c3049f2	0.010759817
142	0x3ce2a919	0.027668523
143	0xbc4a230f	-0.01233746
144	0x3c6fd6ce	0.014638616
145	0xbcc41cd0	-0.02393952
146	0xbd1caa30	-0.03824824
147	0x3cd76d67	0.026297284
148	0x3c906158	0.017624542
149	0xbcc81a7e	-0.024426695
150	0xbc9234a0	-0.01784736
151	0x3b9cf860	0.004790351
152	0xbc569eff	-0.013099431
153	0x3c8f4b18	0.017491862
154	0x3cd38ba3	0.02582342
155	0xbcaed980	-0.021343946
156	0x3b7c1f9a	0.0038470984
157	0x3ccbcd73	0.02487824
158	0xbc8564db	-0.016283443
159	0xbc43e785	-0.011957054
160	0x3c9b3017	0.01894383
161	0x3c7fbdbf	0.015609204
162	0xbc3230ca	-0.01087589
163	0xbc922b7d	-0.017843002
164	0xbc8fa8eb	-0.017536601
165	0xbcb723d5	-0.022355953
166	0xbc1bee5a	-0.009517277
167	0xbc29c138	-0.010361008
168	0xbcd9d5bd	-0.026591176
169	0x3c1e56c6	0.009664243
170	0x3cbb513f	0.02286589
171	0x3b2c11c8	0.0026255716
172	0xbcaa6f07	-0.020804895
173	0x39d77159	0.00041092446
174	0xba061801	-0.0005115271
175	0xbba83312	-0.005133041
176	0xbc9f6be4	-0.019460626
177	0xbc4919d5	-0.012274225
178	0x3c58d74f	0.013234927
179	0xbc1825cf	-0.009286358
180	0x3c3e9a05	0.011633401
181	0xbccbcbc2	-0.024877433
182	0xbce7c0ef	-0.02829024
183	0x3a85fb95	0.0010222072
184	0x382e72f5	4.1591895e-05
185	0x3c3ffc11	0.011717812
186	0x38ae7fd2	8.320775e-05
187	0x3c8ce98f	0.017201213
188	0xbc8c9e83	-0.017165428
189	0xba0e5496	-0.00054294744
190	0xbc0e4bd5	-0.008685072
191	0xbc093f6c	-0.008376937
192	0x3ca46bb9	0.020070897
193	0xbcdfb378	-0.027307257
194	0x3c9cf8a6	0.019161534
195	0x3cbaf870	0.022823542
196	0xbbe1c097	-0.0068894136
197	0x3b80c508	0.003929738
198	0xbcc48265	-0.023987958
199	0x3a9177d6	0.0011098336
200	0xbc85f7d4	-0.016353525
201	0x3b313d9b	0.0027044776
202	0xb73480f1	-1.0758858e-05
203	0xbacbc6f8	-0.0015546968
204	0xbd16f44d	-0.036854077
205	0xba5ed324	-0.00085000903
206	0xbbcea4b2	-0.0063062543
207	0x3b9f4e91	0.004861661
208	0xbc92c311	-0.01791528
209	0x3cec8a87	0.028874649
210	0x3bdc3c9b	0.006721092
211	0xbcdcd032	-0.026954744
212	0xbcc08bb9	-0.023504125
213	0x3cecb6d7	0.028895779
214	0x3c83aebd	0.016074533
215	0xb91dc199	-0.00015044808
216	0x3c4deef3	0.012569177
217	0xbcfe1f25	-0.03102071
218	0x3cb1574d	0.021648074
219	0xbd1998fb	-0.03749941
220	0xbba98570	-0.0051733777
221	0xbc8e7201	-0.017388346
222	0x3bf56519	0.0074888584
223	0x3c0decd5	0.008662422
224	0x3c5496b3	0.012975383
225	0x3a72bafa	0.0009259429
226	0xbc7a39ae	-0.015272541
227	0x3cced256	0.02524678
228	0xbc8e6311	-0.017381223
229	0xbcb6e6b8	-0.022326812
230	0xbc2c5789	-0.010518917
231	0x3cebe330	0.028794855
232	0x3b82d87a	0.003993091
233	0xbcb317ae	-0.021861877
234	0xbca347cc	-0.019931696
235	0xbc7f2edc	-0.015575137
236	0x3c155eaf	0.009116813
237	0x3a9e61db	0.0012083607
238	0xba9a71c3	-0.0011783171
239	0x3c34d99c	0.01103821
240	0x3caf62c3	0.021409398
241	0x3cadedb0	0.021231502
242	0xbc5ef549	-0.013608285
243	0xbc818a07	-0.015812887
244	0xbc39a50d	-0.011330855
245	0xbd0a2b66	-0.033732794
246	0xbac7ae20	-0.0015234388
247	0xbc7c3f52	-0.015395956
248	0xbb4d7b36	-0.0031353957
249	0x3c192caa	0.009349028
250	0x3cccf401	0.025018694
251	0xbc7f1076	-0.015567889
252	0x3cf17a66	0.02947731
253	0xbaf67d8b	-0.0018805725
254	0xbc135b54	-0.008993942
255	0x3cb6c8fb	0.022312632

fc_1.bias f4 [170]
0	0x3c05f1e2	0.008175345
1	0x3b103534	0.0022004368
2	0x3c96bf17	0.018401666
3	0x3ced1573	0.028940892
4	0x3acf21fb	0.0015802974
5	0x3c98f78f	0.018672733
6	0xbc99c09e	-0.018768605
7	0xbcc696f8	-0.02424191
8	0x3c0d2fb5	0.008617331
9	0xbb22cb93	-0.0024840578
10	0xbc3d8c69	-0.011569121
11	0x3b1dd8a3	0.0024085424
12	0xbc141d6c	-0.009040218
13	0xbb4d3796	-0.003131365
14	0xbc9118ea	-0.017712075
15	0xbcee012a	-0.02905329
16	0xbc57e5b8	-0.013177328
17	0x3cc67758	0.02422683
18	0x3cdf63f5	0.027269343
19	0xbbe75920	-0.007060185
20	0xbbbf2289	-0.0058329743
21	0x3ce8e013	0.02842716
22	0xbc695b85	-0.014243011
23	0xbab670a3	-0.0013919066
24	0x3cc87e86	0.024474394
25	0xbcad2fb3	-0.021140909
26	0xbc47da77	-0.012198082
27	0x3cd9de57	0.026595278
28	0xba5a01e3	-0.0008316321
29	0x3cf11969	0.029431062
30	0xbc9a186a	-0.01881047
31	0xbcae3157	-0.021263761
32	0x3c795717	0.015218518
33	0xbcf91cd4	-0.030409254
34	0xbc5155e3	-0.012776825
35	0x3d039a4d	0.032129575
36	0x3c44ab17	0.012003682
37	0xbceb07a5	-0.028690169
38	0xbb01686f	-0.0019746085
39	0x3cbd0237	0.023072345
40	0xbbbea40a	-0.005817895
41	0x3cde373a	0.027125943
42	0x3b90fc1a	0.004424584
43	0xbcb9bedd	-0.022674019
44	0x3c16ab44	0.009196106
45	0xbcb64bd0	-0.022252947
46	0x3be7e1d6	0.0070764823
47	0xbcce4eea	-0.025184114
48	0xbcd94212	-0.026520763
49	0xbc79f810	-0.015256897
50	0xbc6f65d7	-0.014611683
51	0x3c151d8f	0.009101286
52	0xbce60e32	-0.02808294
53	0x3c75930e	0.014988674
54	0x3c1ae03c	0.009452876
55	0xbc1bbde3	-0.009505722
56	0x3cd04758	0.025424644
57	0xbcbafc45	-0.02282537
58	0x3cb21271	0.02173731
59	0x3c0d0fa1	0.008609683
60	0x3ced1c27	0.028944088
61	0xba2ea969	-0.00066628173
62	0x3b8e1157	0.004335563
63	0xbcdffff0	-0.02734372
64	0x3c3466d9	0.011010849
65	0xbcfae69d	-0.030627543
66	0xbca08c51	-0.019598158
67	0xbbaf4e56	-0.0053499145
68	0x3cb80c64	0.022466846
69	0xbbc459df	-0.005992159
70	0x3be5f05d	0.007017179
71	0x3c291fad	0.0103224935
72	0xbbb0f467	-0.005400229
73	0xbc424d65	-0.011859273
74	0xbc017261	-0.007900805
75	0x3c14d7b8	0.0090846345
76	0x3c7f8e1d	0.015597847
77	0xbb8529c0	-0.004063815
78	0x3b8c66cd	0.0042847157
79	0x3cb88756	0.02252547
80	0xbce8d80b	-0.02842333
81	0x3b4418e1	0.0029922056
82	0xbbc2d156	-0.005945365
83	0xbc3ea3ed	-0.011635763
84	0x3cc91dbb	0.02455031
85	0xbc393a99	-0.011305475
86	0xbb81cc41	-0.0039611165
87	0xbcbdabd6	-0.023153227
88	0xbcaff6ff	-0.021480082
89	0xbb869504	-0.0041071195
90	0x3c27a666	0.010232544
91	0xbc86fd98	-0.016478345
92	0x3cdc29e1	0.026875438
93	0xbcd79376	-0.026315432
94	0xbcc09618	-0.02350907
95	0x3c2b0763	0.010438773
96	0x3cd6c30f	0.026216058
97	0x3b965644	0.0045879204
98	0x3cbf5ca1	0.023359599
99	0xbcc0fe7a	-0.023558844
100	0xbcc11afa	-0.023572434
101	0x3c8890c3	0.01667059
102	0x3c856dfb	0.016287794
103	0xbc67eeed	-0.014156085
104	0xbccacdce	-0.024756338
105	0x3cf133c0	0.029443622
106	0xbc529606	-0.012853151
107	0xbc50c551	-0.012742356
108	0x3cfbd1d7	0.030739708
109	0xbcded727	-0.027202202
110	0xbcd7efc2	-0.026359443
111	0xbc9f2945	-0.019428859
112	0x3cbdade9	0.023154216
113	0xbbfff798	-0.007811498
114	0xbcb2d68f	-0.021830825
115	0xbc88875b	-0.016666105
116	0xbb8c8e0a	-0.0042893933
117	0xbc47ba6a	-0.012190441
118	0xbc981aef	-0.01856753
119	0x3c0fad27	0.00876931
120	0x3c781ca2	0.015143545
121	0xbc8c47c4	-0.017124064
122	0x3c0c37c6	0.008558219
123	0x3cb70f25	0.022346089
124	0x3cac5895	0.021038333
125	0xbb7cc85f	-0.003857158
126	0x3cb827c3	0.022479897
127	0x3b5b7a71	0.0033489729
128	0xbc595563	-0.013264987
129	0x3cdef22b	0.027215084
130	0xbc10498f	-0.0088066
131	0x3cf9e8b3	0.030506467
132	0xba644993	-0.0008708473
133	0x3bcab078	0.0061855875
134	0x3cec1716	0.028819602
135	0x3beef1b0	0.007291995
136	0xbc8f40fa	-0.017487038
137	0xbcc76476	-0.024339896
138	0xbab8b6dc	-0.0014092582
139	0x3c95bf24	0.01827962
140	0xbc23d526	-0.009999549
141	0xbce6e814	-0.028186835
142	0xbcea4fa9	-0.028602438
143	0x3c9098f4	0.017651059
144	0xbcc63993	-0.024197375
145	0x3cd86584	0.026415594
146	0x3c026ac9	0.00796003
147	0x3c9c32fe	0.019067284
148	0x3c59171e	0.0132501405
149	0x3c3bd731	0.01146488
150	0xbca739ac	-0.020413242
151	0x3ca95abe	0.020673152
152	0xbca8d36c	-0.020608626
153	0xbce6509e	-0.028114613
154	0x3cd581a4	0.026062794
155	0xbcd03ca1	-0.025419535
156	0x3ce00617	0.027346654
157	0xbcdc0652	-0.026858483
158	0xbcbf877e	-0.023380037
159	0xbc5bb8e0	-0.013410777
160	0x3cdcdc69	0.026960569
161	0x3c4e7e55	0.012603362
162	0xbc8806f6	-0.016604882
163	0xba68c6a1	-0.00088796957
164	0xbc6208b8	-0.013796024
165	0x3c269508	0.010167368
166	0xbcee28bf	-0.029072164
167	0xbc36e38a	-0.011162648
168	0xbcc4beb7	-0.024016721
169	0x3c16a02a	0.0091934595

fc_2.weight f4 [6, 170]
0	0xbd1ab43e	-0.03776955
1	0x3be926be	0.007115214
2	0x3d0f1198	0.034928888
3	0xbca325f0	-0.019915551
4	0xbd245f1e	-0.040129773
5	0xbdb93495	-0.09043232
6	0xbd573148	-0.052537233
7	0xbd110b02	-0.03541089
8	0x3d4920e3	0.04910363
9	0xbcdabee3	-0.02670235
10	0xbc5cbd37	-0.013472847
11	0xbc31407f	-0.0108186
12	0x3d33b527	0.043873932
13	0xbd205d6a	-0.039151587
14	0x3c992208	0.018692985
15	0xbce6316d	-0.02809974
16	0xbd468d69	-0.048474703
17	0x3d98e957	0.07466381
18	0x3dccbd83	0.09997084
19	0x3ce8fb3e	0.028440114
20	0xbb6205a9	-0.0034488237
21	0xbdb09e13	-0.086239
22	0x3d9d54a3	0.07682159
23	0x3d910199	0.07080383
24	0xbdb287a0	-0.08717275
25	0xbc8cce91	-0.017188342
26	0xbcb0a97a	-0.021565188
27	0xbcfe07c7	-0.031009568
28	0x3d66ac0e	0.056316428
29	0x3da76b34	0.08174744
30	0x3c9b0339	0.018922435
31	0xbd98a633	-0.07453575
32	0x3d371e99	0.044706915
33	0x3d23aa29	0.0399572
34	0x3a0022ae	0.000488798
35	0x3d6333bb	0.055469256
36	0xbc49aaeb	-0.012308816
37	0x3d307506	0.043080352
38	0x3c7a2dc3	0.0152696995
39	0xbc97f5f1	-0.018549891
40	0x3d5d36f7	0.054007497
41	0xbd21014f	-0.03930789
42	0xbdc6c4c0	-0.09705496
43	0xbcf537fc	-0.029933922
44	0x3c24f54f	0.010068252
45	0x3d7431f1	0.05961794
46	0xbc415dab	-0.011802117
47	0x3b2e07d2	0.0026554954
48	0x3d8f8b89	0.07009036
49	0xbd80d777	-0.06291097
50	0x3c60067e	0.013673423
51	0xbdaabedb	-0.08337184
52	0xbbc34d20	-0.0059601218
53	0x3db4fa15	0.08836762
54	0xbd780e16	-0.06056031
55	0x3d3e6f01	0.04649258
56	0xbdbbff8d	-0.09179602
57	0x3b0233df	0.0019867343
58	0x3c56429d	0.013077405
59	0xbd82bc05	-0.06383518
60	0xbd8c9bec	-0.06865677
61	0xbd0faaed	-0.035075117
62	0x3d668b71	0.056285325
63	0x3daf2d23	0.08553531
64	0xbd6a27fa	-0.05716703
65	0xbbc4d6f3	-0.0060070693
66	0xbc0c1b53	-0.0085514365
67	0xbd9c0cf3	-0.07619657
68	0xbb06c1cd	-0.0020562292
69	0x3d340b4c	0.043956086
70	0x3c9ae3bf	0.018907426
71	0xbc341551	-0.01099141
72	0x3b719847	0.0036864446
73	0xbd35db33	-0.044398498
74	0x3c37688b	0.011194359
75	0x3d9fc003	0.07800295
76	0xbda14dcc	-0.07876167
77	0x3cd32ac2	0.025777224
78	0x3c950ea4	0.018195458
79	0x3da6d81b	0.081466876
80	0x3dcf47be	0.101211056
81	0xbd313270	-0.04326099
82	0x3beecd77	0.007287677
83	0xbce8b1d3	-0.028405106
84	0xbba9e012	-0.005184182
85	0x3d685b98	0.056727976
86	0xbcb2917f	-0.021797894
87	0xbd8af924	-0.06785801
88	0xbcdb9123	-0.026802605
89	0xbbf1afc1	-0.007375688
90	0x3db1332b	0.08652338
91	0x3d72bb2a	0.059260525
92	0x3d8459f2	0.06462468
93	0xbd92f457	-0.071755104
94	0x3d82fba4	0.06395653
95	0xbd47f5fe	-0.04881858
96	0xbcaaae1c	-0.020834975
97	0xbd4ec642	-0.050482042
98	0x3d97944c	0.07401332
99	0xbc982e4c	-0.018576764
100	0x3da219f9	0.0791511
101	0xbad7be2e	-0.0016459876
102	0x3c77ece7	0.0151321655
103	0xbd7153b2	-0.05891771
104	0x3d81a19d	0.063296534
105	0x3dc0150d	0.09379015
106	0x3d454cb6	0.04816886
107	0x3d50acad	0.050945926
108	0xbcabfe55	-0.020995298
109	0xbd632361	-0.05545366
110	0x3da3162a	0.07963212
111	0xbd12995c	-0.035790786
112	0xbc73f7e9	-0.014890649
113	0xbcbf73c6	-0.023370635
114	0xbd9ad98f	-0.07561027
115	0x3b83c06d	0.0040207417
116	0x3d9c667e	0.07636736
117	0xbd9aa20b	-0.075504385
118	0xbd598332	-0.053103633
119	0x3d0b84d9	0.03406224
120	0x3d0ac345	0.03387763
121	0xbd041af5	-0.03225227
122	0x3c954328	0.0182205
123	0x3d97cf39	0.074125715
124	0x3d91b837	0.07115214
125	0x3d8ff2c6	0.07028727
126	0x3d77294d	0.060342122
127	0x3c228e60	0.00992164
128	0x3cd02399	0.0254076
129	0x3d8434f6	0.06455414
130	0x3d9d7f16	0.07690255
131	0x3d719f5d	0.05898987
132	0x3cd3ad60	0.025839508
133	0x3d7f2626	0.06229224
134	0x3db8f14c	0.09030399
135	0xbd9f6c3d	-0.07784317
136	0xbda1435c	-0.07874176
137	0xbd9df83a	-0.07713361
138	0x3db8c587	0.0902205
139	0xbda51db2	-0.080623046
140	0x3d5d6403	0.054050457
141	0xbd2d8ea6	-0.04237237
142	0x3d773672	0.060354657
143	0xbd0758a4	-0.03304352
144	0x3d7610df	0.060074683
145	0xbd4751d5	-0.048662025
146	0xbccdbeb9	-0.025115358
147	0x3d645eb6	0.055754386
148	0x3d2e2430	0.04251498
149	0xbd7e5edb	-0.06210218
150	0x3c148085	0.009063845
151	0xbd79c378	-0.06097743
152	0x3d0c8d84	0.034314647
153	0x3d994c3d	0.074852444
154	0xbd85caa7	-0.065327935
155	0xbd826bad	-0.06368194
156	0x3da94b13	0.082662724
157	0x3bdb08c4	0.0066843946
158	0x3d82a37a	0.06378837
159	0x3c7fe33e	0.015618144
160	0xbd5551f2	-0.052080102
161	0xbc5c763c	-0.013455924
162	0xbcdd1ea5	-0.026992152
163	0xbd599bbf	-0.053127047
164	0x3d5dc6b5	0.05414458
165	0x3d849575	0.06473819
166	0xbd133020	-0.035934567
167	0xbd11c370	-0.035586774
168	0xbbd1b154	-0.006399313
169	0x3c6bd4f4	0.014394034
170	0xbdb12e5a	-0.08651419
171	0xbd1e7261	-0.0386833
172	0x3cc8e7c6	0.02452458
173	0x3d721f98	0.05911216
174	0xbc567dbe	-0.013091503
175	0xbd9111e1	-0.07083488
176	0x3d839469	0.06424791
177	0x3d7b6dd6	0.061384045
178	0xbd1f1085	-0.038834114
179	0xbda1e29a	-0.07904549
180	0xbda8c984	-0.08241561
181	0x3d9d5855	0.076828636
182	0x3d0203b9	0.03174183
183	0x3dc08171	0.09399689
184	0x3cc80e7a	0.024420965
185	0x3d6b8702	0.0575018
186	0x3d89e14b	0.06732424
187	0x3d80d08a	0.06289776
188	0x3c8db979	0.017300354
189	0x3c92fe75	0.0179436
190	0xbd70f7f2	-0.05883021
191	0xbc63af3e	-0.013896761
192	0x3c8d4394	0.017244138
193	0xbd1e4ff5	-0.03865047
194	0x3dbc7981	0.092028625
195	0x3a2c4207	0.0006571118
196	0xbc6ed3cf	-0.014576866
197	0x3d37c648	0.04486683
198	0x3da29d79	0.07940192
199	0x3c690d69	0.014224389
200	0xbd4bbf8f	-0.04974323
201	0x3ccbe20d	0.024888063
202	0x3c34b5a8	0.011029638
203	0xbd951c31	-0.07280768
204	0x3d99958a	0.074992254
205	0x3ddfc832	0.10926856
206	0x3d821b00	0.06352806
207	0xbb0caa4a	-0.0021463805
208	0x3db7b5db	0.08970233
209	0x3d7d531c	0.061846837
210	0xbc4798d8	-0.012182437
211	0x3d0ea890	0.034828722
212	0xbcd07b7c	-0.025449507
213	0xbd32fea1	-0.043699864
214	0xbd101e03	-0.03518487
215	0x3d991806	0.07475285
216	0xbca64442	-0.02029622
217	0x3cd9dee4	0.02659554
218	0xbd95d690	-0.07316315
219	0x3d99139f	0.074744456
220	0xbdcb8052	-0.099365845
221	0x3c912917	0.017719788
222	0xbd97f746	-0.074202105
223	0xbca9f7bc	-0.020748012
224	0xbdd40fd0	-0.103545785
225	0xbd8b88bf	-0.068131916
226	0x3d42d394	0.047565058
227	0xba76b530	-0.00094111543
228	0xbd54aab9	-0.051920626
229	0xbd3cd135	-0.046097953
230	0xbd801df0	-0.0625571
231	0xbc88177f	-0.016612766
232	0xbb718e38	-0.003685845
233	0x3d43e08e	0.047821574
234	0xbcfed627	-0.031107975
235	0xbdc833da	-0.09775515
236	0xbd9b82e8	-0.07593328
237	0x3d323af1	0.043513242
238	0xbbdd22cf	-0.0067485343
239	0x3dad4c6a	0.084618405
240	0x3d4ef127	0.05052295
241	0x3ca90733	0.020633316
242	0xbcccafe6	-0.024986219
243	0xbd45bef8	-0.048277825
244	0xbd2427e6	-0.040077113
245	0xbc9c6bfe	-0.019094463
246	0xbcfad4a9	-0.030618982
247	0xbbdb2dfa	-0.0066888304
248	0x3ccd77a6	0.025081467
249	0x3d6be210	0.057588637
250	0x3d0aa35e	0.033847205
251	0x3b9e4bff	0.004830837
252	0xbc65bd89	-0.0140222395
253	0xbc025f00	-0.00795722
254	0x3d99dc3e	0.07512711
255	0x3d0d6295	0.034517843

fc_2.bias f4 [6]
0	0x3cbaf196	0.022820275
1	0xbc410ce0	-0.011782855
2	0xbd86faee	-0.0659083
3	0xbc011115	-0.007877608
4	0x3d9d06cc	0.07667312
5	0xbd7667f9	-0.06015775
